LifeAfter_2.0.529/assets/available.tflite (tflite, 3660 bytes, 5 tensors)

sequential/normalization/truediv;sequential/normalization/Sqrt f4 [1, 4]
000000 88 68 cd 2f 5f cb 9e 40 a8 1e 01 41 5f 90 8f 3b
       3.7363557e-10 4.9623256 8.069984 0.004381224

Const_1 f4 [1, 4]
000000 05 7c b3 4f 99 95 15 3f f0 44 59 3e 9b 73 7f 43
       6.022499e+09 0.5843139 0.21217704 255.45158

sequential/dense/BiasAdd/ReadVariableOp f4 [64]
000000 3f a4 fd be 7e 4c 05 bf 6f 7a e7 be d7 eb 62 3c
       -0.49539372 -0.5206984 -0.45210597 0.013850174
000010 19 ad b3 3e 98 ad a2 be ee 27 57 3d f0 64 0f bf
       0.35093 -0.31773067 0.052528314 -0.56013393
000020 f4 06 3e bf 1f fb a4 be 48 df 57 3e 95 97 ce be
       -0.7422936 -0.3222284 0.21081269 -0.40350023
000030 c1 a5 f4 be 2d 08 f3 be 8f 80 6f 3d 64 7a 37 3d
       -0.4778271 -0.47467175 0.058472212 0.044794455
000040 78 e8 0f 3d cd 71 15 be f7 a2 f4 bd 02 97 d4 3d
       0.03513381 -0.14594193 -0.119451456 0.10380365
000050 f5 83 97 bc 6a bf 8d bc 44 da 47 bd 37 c5 ae bd
       -0.01849554 -0.017303187 -0.04879214 -0.085337095
000060 86 11 35 bf a6 a9 0a be ac d5 00 be 9c 8c 9a be
       -0.70729864 -0.13541278 -0.1258151 -0.301854
000070 c9 85 50 bd 89 39 a9 ba 98 1f 2c bf 8b ef 82 be
       -0.050908837 -0.0012910824 -0.6723571 -0.25573382
000080 6a 3b 48 be 46 6d 83 be ce 49 40 3e 66 78 a0 3e
       -0.19553915 -0.25669307 0.18778154 0.31341857
000090 45 9a c1 3c 1e 18 8f be 69 1e 5b be c5 de dc be
       0.023633132 -0.27948087 -0.2139832 -0.4313871
0000a0 be da 15 3e df 00 35 be 6a f7 18 bf d1 29 f9 be
       0.14634225 -0.17676114 -0.59752524 -0.48664716
0000b0 c7 14 8b bd 3f 9c 1f bf bc 73 47 3e 56 ee 69 3d
       -0.06791072 -0.6234779 0.19477743 0.05711206
0000c0 fa 80 1a be e0 bf 35 bf d5 55 37 be d1 d9 4a 3e
       -0.15088263 -0.70995903 -0.17903836 0.19809653
0000d0 dd 51 76 3e bb 37 c1 be b9 35 2e 3e d9 0c 6b be
       0.24054666 -0.3773783 0.17012681 -0.2295412
0000e0 a2 f1 b5 be 7d 53 34 be a1 5a ea be 0b a3 c6 be
       -0.35535914 -0.17609973 -0.4577227 -0.38796267
0000f0 11 27 46 bf 6b 1a 39 bf a2 71 d2 bd 4c 84 4c be
       -0.7740336 -0.72305936 -0.1027558 -0.19972342

sequential/dense/MatMul f4 [64, 4]
000000 01 05 7b bd f8 3b cf be 69 50 b5 3d c3 12 2b 3e
       -0.06128407 -0.4047544 0.08853228 0.16706376
000010 80 eb 56 be 50 19 f0 be 29 a3 51 3e 65 9a 5f 3e
       -0.20988274 -0.46894312 0.20472397 0.2183624
000020 a5 24 ba 3e 9c f4 54 3e 87 ea 00 3d a8 d1 91 3e
       0.36356083 0.20796436 0.031473663 0.28480268
000030 17 69 d6 bd 7b 81 d8 bd d1 a4 4d bd de 3a 04 bf
       -0.10469263 -0.105715714 -0.05020601 -0.51652324
000040 b0 93 59 bd 76 e2 f1 3e 66 12 0b 3e 0d f2 32 3c
       -0.05311936 0.47243088 0.13581237 0.010921967
000050 bc 75 67 be d3 78 84 3e cb d3 b2 be 99 43 b6 3d
       -0.22603506 0.25873432 -0.3492721 0.08899612
000060 88 fa 8c 3e 2e e7 e4 3d 00 50 4a be ee e5 e5 be
       0.2753489 0.111769065 -0.1975708 -0.44901985
000070 0e e7 6d 3f 4f 37 b6 3e cf 70 ea bc ac ca 58 bd
       0.92930686 0.35589072 -0.028618244 -0.052927658
000080 f3 ee 19 3f 75 db 08 3d 24 d5 df bd 79 7a 74 be
       0.6013023 0.033412416 -0.10929325 -0.23874845
000090 75 90 14 be 1b 0b f8 bd bd cb 9b 3e 77 14 a4 3e
       -0.14508231 -0.12111493 0.30428877 0.32046863
0000a0 65 66 bd bd 46 a5 0a be af ec 2f be e4 8b 07 bf
       -0.09248046 -0.1353961 -0.17180131 -0.5294783
0000b0 0e 2d 70 3d 86 e9 58 be 90 05 9d bc 7e c1 b8 bd
       0.058636717 -0.21182832 -0.019167691 -0.09021281
0000c0 75 03 9b be 83 3e da be bf fe 45 3d 23 d4 af 3d
       -0.30276075 -0.42625818 0.048338648 0.08585384
0000d0 cc a7 b0 3e 6c 28 b9 3d 3d 3e 8a be 6a e2 86 be
       0.3450302 0.09040913 -0.2700061 -0.26344615
0000e0 f8 6c 87 be f7 12 9e 3e 31 9b 3f be 78 41 be be
       -0.26450324 0.30873844 -0.18711545 -0.37159324
0000f0 ed 77 dd bd ef 88 19 be d5 51 c3 be 44 ed f9 be
       -0.1081389 -0.14993642 -0.3814837 -0.48813832
000100 e9 3a 38 3e be 44 c0 be 6a 09 a4 be 5a 8a 0d bf
       0.17991222 -0.37552446 -0.32038432 -0.5528923
000110 5c 47 10 3e f5 7f aa be ee e3 2d be 90 45 19 3e
       0.14089721 -0.33300748 -0.1698148 0.14967942
000120 94 a9 f8 be bd 5c cb 3d 9f 79 58 3e 14 75 dc 3d
       -0.48566878 0.09929798 0.21140145 0.107645184
000130 40 11 a7 be 49 b2 be bd 8b 59 99 3e d3 00 a6 3e
       -0.32630348 -0.09311349 0.29951128 0.32422504
000140 d3 eb ed bd da 87 4e bf f7 c2 25 3d b6 cd 37 3d
       -0.116172455 -0.80676043 0.040469136 0.044873916
000150 dc 1b fe 3e 27 c7 a8 be 09 0c 9f 3c 1d 5c c6 3d
       0.4963063 -0.3296444 0.019414918 0.09685538
000160 de b2 81 3c 31 67 01 bb 22 fa d4 bb 67 9f 94 bc
       0.01583236 -0.0019745345 -0.0064995447 -0.018142415
000170 7d 6b 1e 3e f5 07 36 bf cc c1 86 3d 5c 0f 2c 3e
       0.15470691 -0.7110589 0.065799326 0.16802734
000180 a9 ef 57 3e b2 74 a5 3e ad e3 2e 3c 9c 62 f5 3c
       0.21087517 0.32315594 0.010674399 0.029954247
000190 40 9a fc 3e 74 df 41 3f ef dd c6 3c 74 65 cd bc
       0.49336433 0.7573159 0.024275748 -0.02507279
0001a0 ae e3 40 be 40 7c 02 be 4d 74 98 be 0b 60 2a 3d
       -0.18836853 -0.1274271 -0.2977623 0.0415955
0001b0 63 53 e2 bd 95 cf 7c 3e 7e 72 11 bf b3 6b 1c be
       -0.11051061 0.24688561 -0.56815326 -0.15275459
0001c0 6d ed 31 be 7c f3 2b 3e 41 84 5b be 05 c2 10 bf
       -0.17375727 0.167921 -0.2143717 -0.5654605
0001d0 ed 0c fa 3d 32 5e 28 bf 1c db 5f be bc eb e9 be
       0.12209497 -0.6576873 -0.21860927 -0.45687664
0001e0 c9 d0 0c 3f b6 f3 a7 3e c3 0d 34 be 3b 74 8c 3d
       0.5500608 0.32803124 -0.17583375 0.06858107
0001f0 2d f3 05 be 12 73 10 3c 6e 41 82 be 8b 44 ba 3e
       -0.13081045 0.008816497 -0.25440544 0.3638042
000200 f5 71 6b bd b7 af c2 bc d6 f6 38 bd 9f 4a a4 3c
       -0.057481725 -0.023765428 -0.045157276 0.020055113
000210 68 17 24 be 44 4b d9 bc 7e 31 cc bd 11 4a be be
       -0.16024554 -0.026525147 -0.099703774 -0.37165883
000220 88 92 00 bf b5 98 80 3d cc 6e df bd f6 c6 cf be
       -0.5022359 0.062791266 -0.10909805 -0.40581483
000230 b0 a0 e0 3e 86 af 99 be 4e a3 80 bd 83 6e 9d bd
       0.43872595 -0.30016726 -0.06281148 -0.07687094
000240 0e 79 9c 3e e4 3e 29 3e dc d1 fc 3d 51 56 5d be
       0.30561107 0.16527897 0.12344715 -0.21614958
000250 94 02 b6 3e a7 44 b2 be 01 34 d6 3d ef 1f 03 3e
       0.35548842 -0.34818003 0.10459138 0.1280515
000260 54 46 8d 3e 88 7d d3 bd 88 05 ba be 59 a6 75 bc
       0.2759272 -0.103266776 -0.36332345 -0.014993274
000270 d4 c1 a8 3e 0c b3 5b 3e 67 58 9f 3d 04 63 98 3e
       0.3296038 0.2145502 0.07780533 0.29763043
000280 01 87 b1 3e 71 12 6a 3e d5 48 b2 be df d0 0d 3e
       0.34673312 0.22858597 -0.3482119 0.13849209
000290 8c c4 ba bd 6b c5 01 bc 2c 7f 22 be 03 27 2d 3d
       -0.091195196 -0.007920603 -0.15868825 0.042273533
0002a0 f8 c6 62 3e 27 67 ac 3e f9 86 78 3e 82 cc 20 3f
       0.22146213 0.3367245 0.24270238 0.62812054
0002b0 0b ec fb 3e a6 4a 62 be e4 33 e1 3d eb e9 b8 3e
       0.49203524 -0.22098789 0.109962255 0.36115965
0002c0 a5 7a 25 be 5a 47 0f bf e9 a5 c4 3d 4d dc be 3e
       -0.16160066 -0.5596825 0.09601957 0.3727745
0002d0 3d 56 eb be c1 7b 99 bd 87 9c ef 3d 26 d1 57 3d
       -0.45964232 -0.07494307 0.11699777 0.052689694
0002e0 6f 25 ee bd c0 b8 24 3e 77 2c 50 3d df 47 dd be
       -0.11628234 0.16086102 0.050823655 -0.43218896
0002f0 42 3f 9e 3e fc 80 14 3e 3a 93 6d be 13 78 81 be
       0.30907637 0.14502329 -0.23200694 -0.25286922
000300 82 3c f0 be 7b ae 88 3d a3 80 b4 bd a0 8b 9c 3e
       -0.46921164 0.066739045 -0.08813598 0.30575275
000310 70 7b cd 3e 67 8f 89 3e a4 5f 08 3e 89 b1 ee 3d
       0.40133238 0.2686722 0.13317734 0.11654956
000320 37 b0 12 3f 46 fc d1 bc c6 32 30 3e bf d6 ad 3e
       0.5730013 -0.025632989 0.17206869 0.339529
000330 72 60 dc 3e a9 69 96 3e 96 85 b4 bc 0e a4 52 3e
       0.43042332 0.29377487 -0.022036355 0.20570394
000340 5f c1 cc 3c 0f d3 8d be 6b 16 b5 bd 70 6f 0d bf
       0.02499455 -0.27700087 -0.088421665 -0.55248165
000350 fc 91 30 3f 42 62 ea be 12 57 5e 3d dd 2b ed 3d
       0.68972754 -0.4577809 0.054282255 0.11580632
000360 86 97 1c be f9 91 c4 be 2e 12 0f 3e ae fe 23 be
       -0.15292177 -0.38392618 0.13971779 -0.16015121
000370 98 81 d3 3e 2c 49 2c 3f e4 e8 f8 3d a0 6f 90 3e
       0.4130981 0.6729915 0.12153795 0.28210163
000380 35 ff 06 3f 29 61 37 be cd 1b 34 be fb a0 cd be
       0.52733165 -0.17908157 -0.1758873 -0.4016188
000390 2e 38 dd be 45 35 0e be ae 0c 4f be f6 ec b5 be
       -0.43206924 -0.13887508 -0.2021968 -0.3553235
0003a0 50 11 f2 bd b0 50 00 3e 02 73 6e 3e 87 4b 29 3d
       -0.11819708 0.1253078 0.2328606 0.041331794
0003b0 1f 1a c5 3e df 23 1f bf f8 a0 8d 3d 0b 19 24 3e
       0.3849649 -0.6216411 0.06915468 0.16025178
0003c0 22 5c 4c 3d c2 c4 f3 bc 2b d8 b0 3b 2d f0 d3 3e
       0.049892552 -0.029756907 0.005396863 0.41394177
0003d0 6a df 0b be 21 7e 9a 3e 5e 27 53 3a 7a c3 23 be
       -0.13659444 0.30174354 0.00080548774 -0.15992537
0003e0 dd b2 59 3f 8c 43 65 3d 07 40 db bd b3 c2 8b be
       0.8503855 0.05597262 -0.107055716 -0.2729698
0003f0 f0 3f 9c 3e d5 66 68 3d 37 b8 a9 3e d4 14 19 3c
       0.3051753 0.056738693 0.33148357 0.009343345

sequential/dense_1/MatMul f4 [1, 64]
000000 61 b4 93 3e ca ff e6 3e 3f b8 95 be a4 27 04 3e
       0.28848556 0.45117027 -0.2924213 0.12905747
000010 ef 55 74 3e 7d 5b 01 be a5 7a 28 be 32 31 82 3f
       0.23860906 -0.12632556 -0.16453035 1.0171263
000020 3f b0 c2 bf 80 d2 f2 bd 92 77 61 3e 57 b9 2b bf
       -1.5210036 -0.11856556 0.22018269 -0.6707968
000030 6c 4b f9 be 18 60 37 3f 27 a2 5d be ad 4b 49 3e
       -0.48690355 0.71631 -0.21643887 0.19657774
000040 d9 8e 98 be 15 ec ca 3d a7 33 33 be 95 9a 31 3e
       -0.29796484 0.0990831 -0.17500173 0.17344125
000050 1a 07 96 be 9a b0 87 3e ee 9e 85 ba 3c 5d 93 be
       -0.29302293 0.26501924 -0.001019446 -0.2878207
000060 8b 06 5e bf 4f e1 cd 3e 70 be 9e bd 7e 60 50 3e
       -0.86728734 0.4021096 -0.07751167 0.20349309
000070 a4 a4 51 be 8f dd ac 3e 0f 1b 0a bf 3d 26 0e 3e
       -0.20472962 0.33762786 -0.5394754 0.13881774
000080 85 16 87 3b 99 49 a4 bd 2d 9b 66 3e 46 7f 61 3e
       0.0041225576 -0.0802185 0.22520132 0.22021207
000090 99 34 c0 3d b7 c1 52 be d0 32 d9 bd fe ba 2b be
       0.09385032 -0.20581709 -0.10605395 -0.1677055
0000a0 98 6e 13 be 7c 82 90 bd 0d 03 21 3f 91 af 0d bf
       -0.14397657 -0.07056138 0.6289528 -0.5534602
0000b0 66 6a 94 3e 37 75 05 bf 7b ae 1f 3e 29 48 b0 bd
       0.28987426 -0.5213198 0.15593903 -0.086075135
0000c0 c0 55 3a be 99 80 80 bf bd 1e b4 3e b7 6a 12 3e
       -0.18196774 -1.0039245 0.351797 0.14298521
0000d0 46 64 57 3e 9b e3 eb 3e ec 13 d2 3d 09 22 1f bf
       0.21034345 0.46072087 0.10257706 -0.6216131
0000e0 0a 4a c6 3e 74 6a 2f be ba 5b 6f 3e d2 1e a8 be
       0.38728362 -0.17130452 0.23374835 -0.32836014
0000f0 2b e4 32 bf 5c 4b 17 3f c2 1a 05 bf 42 ad f3 bd
       -0.69879407 0.59099364 -0.51993954 -0.11898281
